…
, 2=Fear, 3=Happy, 4=Sad, 5=Surprise, 6=Neutral).

The training set consists of 35,888 examples. It contains two columns, “emotion” and “pixels”. The “emotion” column contains a numeric code ranging from 0 to 6, inclusive, for the emotion that is present in the image. The “pixels” column contains a string surrounded in quotes for each image. The contents of this string a space-separated pixel values in row-major order

MODEL SUMMARY:

Layer (type)                 Output Shape              Param #   
=================================================================
conv2d_65 (Conv2D)           (None, 48, 48, 32)        320       
_________________________________________________________________
conv2d_66 (Conv2D)           (None, 48, 48, 32)        9248      
_________________________________________________________________
max_pooling2d_33 (MaxPooling (None, 24, 24, 32)        0         
_________________________________________________________________
conv2d_67 (Conv2D)           (None, 24, 24, 64)        18496     
_________________________________________________________________
conv2d_68 (Conv2D)           (None, 24, 24, 64)        36928     
_________________________________________________________________
max_pooling2d_34 (MaxPooling (None, 12, 12, 64)        0         
_________________________________________________________________
conv2d_69 (Conv2D)           (None, 12, 12, 96)        55392     
_________________________________________________________________
conv2d_70 (Conv2D)           (None, 10, 10, 96)        83040     
_________________________________________________________________
max_pooling2d_35 (MaxPooling (None, 5, 5, 96)          0         
_________________________________________________________________
conv2d_71 (Conv2D)           (None, 5, 5, 128)         110720    
_________________________________________________________________
conv2d_72 (Conv2D)           (None, 3, 3, 128)         147584    
_________________________________________________________________
max_pooling2d_36 (MaxPooling (None, 1, 1, 128)         0         
_________________________________________________________________
flatten_9 (Flatten)          (None, 128)               0         
_________________________________________________________________
dense_17 (Dense)             (None, 64)                8256      
_________________________________________________________________
dropout_9 (Dropout)          (None, 64)                0         
_________________________________________________________________
dense_18 (Dense)             (None, 7)                 455       
=================================================================


REAL TIME IMPLEMENTATION:
In Real-time, the webcam recorded the video and detected the faces in the yellow box and extracted the facial landmarks with red dots. Then the vectors were calculated with red lines. The figure 5 shows the screenshot of the results with these facial landmarks and then predicting the emotion by the classification model.
…
